…
[ Fri Mar  2 09:27:24 2018 ] cfg: {'feature_maps': [38, 19, 10, 5, 3, 1], 'min_dim': 300, 'steps': [8, 16, 32, 64, 100, 300], 'min_sizes': [30, 60, 111, 162, 213, 264], 'max_sizes': [60, 111, 162, 213, 264, 315], 'aspect_ratios': [[2], [2, 3], [2, 3], [2, 3], [2], [2]], 'variance': [0.1, 0.2], 'clip': True, 'name': 'v2'}

[ Fri Mar  2 09:27:24 2018 ] train_sets: train

[ Fri Mar  2 09:27:24 2018 ] means: (104, 117, 123)

[ Fri Mar  2 09:27:24 2018 ] num_classes: 25

[ Fri Mar  2 09:27:24 2018 ] loss_reset_step: 30

[ Fri Mar  2 09:27:24 2018 ] eval_step: 10000

[ Fri Mar  2 09:27:24 2018 ] print_step: 10

[ Fri Mar  2 09:27:24 2018 ] SSD (
  (vgg): ModuleList (
    (0): Conv2d(3, 64, kernel_size=(3, 3), stride=(1, 1), padding=(1, 1))
    (1): ReLU (inplace)
    (2): Conv2d(64, 64, kernel_size=(3, 3), stride=(1, 1), padding=(1, 1))
    (3): ReLU (inplace)
    (4): MaxPool2d (size=(2, 2), stride=(2, 2), dilation=(1, 1))
    (5): Conv2d(64, 128, kernel_size=(3, 3), stride=(1, 1), padding=(1, 1))
    (6): ReLU (inplace)
    (7): Conv2d(128, 128, kernel_size=(3, 3), stride=(1, 1), padding=(1, 1))
    (8): ReLU (inplace)
    (9): MaxPool2d (size=(2, 2), stride=(2, 2), dilation=(1, 1))
    (10): Conv2d(128, 256, kernel_size=(3, 3), stride=(1, 1), padding=(1, 1))
    (11): ReLU (inplace)
    (12): Conv2d(256, 256, kernel_size=(3, 3), stride=(1, 1), padding=(1, 1))
    (13): ReLU (inplace)
    (14): Conv2d(256, 256, kernel_size=(3, 3), stride=(1, 1), padding=(1, 1))
    (15): ReLU (inplace)
    (16): MaxPool2d (size=(2, 2), stride=(2, 2), dilation=(1, 1))
    (17): Conv2d(256, 512, kernel_size=(3, 3), stride=(1, 1), padding=(1, 1))
    (18): ReLU (inplace)
    (19): Conv2d(512, 512, kernel_size=(3, 3), stride=(1, 1), padding=(1, 1))
    (20): ReLU (inplace)
    (21): Conv2d(512, 512, kernel_size=(3, 3), stride=(1, 1), padding=(1, 1))
    (22): ReLU (inplace)
    (23): MaxPool2d (size=(2, 2), stride=(2, 2), dilation=(1, 1))
    (24): Conv2d(512, 512, kernel_size=(3, 3), stride=(1, 1), padding=(1, 1))
    (25): ReLU (inplace)
    (26): Conv2d(512, 512, kernel_size=(3, 3), stride=(1, 1), padding=(1, 1))
    (27): ReLU (inplace)
    (28): Conv2d(512, 512, kernel_size=(3, 3), stride=(1, 1), padding=(1, 1))
    (29): ReLU (inplace)
    (30): MaxPool2d (size=(3, 3), stride=(1, 1), padding=(1, 1), dilation=(1, 1))
    (31): Conv2d(512, 1024, kernel_size=(3, 3), stride=(1, 1), padding=(6, 6), dilation=(6, 6))
    (32): ReLU (inplace)
    (33): Conv2d(1024, 1024, kernel_size=(1, 1), stride=(1, 1))
    (34): ReLU (inplace)
  )
  (clstm): ModuleList (
    (0): CLSTM (
      (cell_list): ModuleList (
        (0): CLSTM_cell (
          (conv): Conv2d(1024, 2048, kernel_size=(3, 3), stride=(1, 1), padding=(1, 1))
        )
      )
    )
  )
  (L2Norm): L2Norm (
  )
  (extras): ModuleList (
    (0): Conv2d(1024, 256, kernel_size=(1, 1), stride=(1, 1))
    (1): Conv2d(256, 512, kernel_size=(3, 3), stride=(2, 2), padding=(1, 1))
    (2): Conv2d(512, 128, kernel_size=(1, 1), stride=(1, 1))
    (3): Conv2d(128, 256, kernel_size=(3, 3), stride=(2, 2), padding=(1, 1))
    (4): Conv2d(256, 128, kernel_size=(1, 1), stride=(1, 1))
    (5): Conv2d(128, 256, kernel_size=(3, 3), stride=(1, 1))
    (6): Conv2d(256, 128, kernel_size=(1, 1), stride=(1, 1))
    (7): Conv2d(128, 256, kernel_size=(3, 3), stride=(1, 1))
  )
  (loc): ModuleList (
    (0): Conv2d(512, 16, kernel_size=(3, 3), stride=(1, 1), padding=(1, 1))
    (1): Conv2d(1024, 24, kernel_size=(3, 3), stride=(1, 1), padding=(1, 1))
    (2): Conv2d(512, 24, kernel_size=(3, 3), stride=(1, 1), padding=(1, 1))
    (3): Conv2d(256, 24, kernel_size=(3, 3), stride=(1, 1), padding=(1, 1))
    (4): Conv2d(256, 16, kernel_size=(3, 3), stride=(1, 1), padding=(1, 1))
    (5): Conv2d(256, 16, kernel_size=(3, 3), stride=(1, 1), padding=(1, 1))
  )
  (conf): ModuleList (
    (0): Conv2d(512, 100, kernel_size=(3, 3), stride=(1, 1), padding=(1, 1))
    (1): Conv2d(1024, 150, kernel_size=(3, 3), stride=(1, 1), padding=(1, 1))
    (2): Conv2d(512, 150, kernel_size=(3, 3), stride=(1, 1), padding=(1, 1))
    (3): Conv2d(256, 150, kernel_size=(3, 3), stride=(1, 1), padding=(1, 1))
    (4): Conv2d(256, 100, kernel_size=(3, 3), stride=(1, 1), padding=(1, 1))
    (5): Conv2d(256, 100, kernel_size=(3, 3), stride=(1, 1), padding=(1, 1))
  )
  (softmax): Softmax ()
)
[ Fri Mar  2 09:27:56 2018 ] Epoch 28/35 Iteration 000010/003409 loc-loss 0.809(1.065) cls-loss 2.191(2.564) average-loss 1.500(1.814) Timer 28.535(28.535) lr 0.000005

[ Fri Mar  2 09:28:30 2018 ] Epoch 28/35 Iteration 000020/003409 loc-loss 1.057(0.924) cls-loss 2.226(2.255) average-loss 1.642(1.590) Timer 33.990(31.263) lr 0.000005
…
